latency_model.pth (torch, 3485 bytes, 5 tensors)

0.weight f4 [10, 5]
00000000: 3951 003f e58c f43e f425 96bf bdbf 69c0
00000010: 71ea 0c40 dccc 983e 6e48 3c3f ce7b 5b3e
00000020: 3747 a2c0 9ee7 aa3f c1b2 e1bd f495 d63e
00000030: 327d 753f e0a6 65c0 cdd0 2a40 114c 063e
00000040: a810 743f b842 97bd ebc0 c5c0 024c 5740
00000050: 26c4 283e 697a f53e cb72 923f 5f7b c3bf
00000060: d36e 843f 261a 0a3f 1e5d f53e 13ca 3ec0
00000070: 195e 6dc0 6860 4c40 d75a d73c 6778 363f
00000080: 4b49 c1bd 3b78 36bf 8844 0a40 1e70 de3d
00000090: d8db b43f 2377 733e 85fb 0cbf 86fd 853f
000000a0: 671b 763f 3b81 123f d4f4 8dc0 d9dc 95c0
000000b0: 2c89 973f 7082 5fbe 9dec 9b3e 4e37 bd3f
000000c0: 8240 3dc0 48d9 3840
0.50123936 0.47763744 -1.1730332 -3.6523278 2.2018092 0.29843795 0.7354802 0.21433946
-5.071193 1.3351934 -0.11020423 0.4191128 0.9589416 -3.5883102 2.6689942 0.13114955
0.95337915 -0.073857725 -6.1797996 3.3640141 0.16481075 0.47944954 1.1441282 -1.5272025
1.0346321 0.5394615 0.47922605 -2.9810836 -3.7088683 3.1933842 0.026288433 0.7127747
-0.09437808 -0.7127721 2.1604328 0.108612284 1.4129591 0.23775916 -0.5507129 1.0467994
0.9613556 0.5722844 -4.4361362 -4.683209 1.1838737 -0.21827102 0.3045396 1.4782503
-2.9570622 2.8882618

0.bias f4 [10]
00000000: bb29 8cbf c52f 0fbf 1035 a63e eb2e 15bf
00000010: ccd2 3bbf 185a d2bf aa43 963f 28fd d33f
00000020: 7c55 6cc0 af22 2b3f
-1.0950235 -0.55932266 0.32462358 -0.58274716 -0.73368526 -1.6433744 1.17394 1.6561632
-3.6927176 0.668498

2.weight f4 [5, 10]
00000000: 7aef 88c0 9a2d 63c0 403c 4c40 f2d4 ac40
00000010: 9a47 14c0 0891 b7bf 2836 1240 4f58 4bc0
00000020: e6ee cdc0 e59a 6340 420f 44be 4f73 1bbe
00000030: aee2 1dbe 1c27 a4bd 838a a13e fac3 98be
00000040: c24b 8cbe e118 a1be df9f 41be 87ab 833e
00000050: b082 d03f a10d 1040 58e4 2e40 f9cd 7d3f
00000060: fa70 823f ee90 2740 74b9 8b3f 45ea 643f
00000070: d761 5640 9333 f63f 1f0c e53f 8e40 0240
00000080: 1827 2840 0867 943f 7bab 6f3f a808 3440
00000090: 8ae5 6a3f ce80 6c3f a6b2 3640 eeaf ca3f
000000a0: c230 f33f 11aa 0a40 76cb 3040 e1e7 a83f
000000b0: 6ace 443f 541a 2140 5c1f 943f 819b 193f
000000c0: cc08 3340 d3fa 0240
-4.279233 -3.5496583 3.1911774 5.4009943 -2.3168702 -1.4341135 2.2845554 -3.177265
-6.4354124 3.556329 -0.19146445 -0.15180705 -0.15418503 -0.08015272 0.3155099 -0.29837018
-0.2740155 -0.31464294 -0.18908642 0.25716802 1.6289883 2.2508318 2.732687 0.99142414
1.0190728 2.6182208 1.0915971 0.89419967 3.3497217 1.9234489 1.7894324 2.03519
2.627386 1.1593943 0.93621033 2.8130283 0.917565 0.9238404 2.8546538 1.583494
1.8999255 2.16663 2.7624183 1.3195764 0.7687746 2.517232 1.157207 0.60002905
2.797412 2.046559

2.bias f4 [5]
00000000: 20f6 d63d 2831 20be 89e3 edbc 3dc9 f5bc
00000010: ab34 273e
0.10496163 -0.15643752 -0.029039161 -0.030003184 0.16328685

4.weight f4 [1, 5]
00000000: 0f09 c3c0 ccf1 99be d6f8 1a40 56cc 2240
00000010: 5dd9 1a40
-6.094856 -0.3006729 2.4214377 2.5437217 2.4195168
